trained_attribution_model.pth (torch, 19213 bytes, 17 tensors)

feature_extractor.0.weight f4 [32, 10]
0	0x3eb83b54	0.35982764
1	0xbe04658d	-0.12929364
2	0x3f1d0833	0.61340636
3	0x3dea2a1e	0.114338145
4	0xbda79569	-0.081827946
5	0xbe431ea5	-0.19054659
6	0xbbacb085	-0.005270066
7	0x3d6c0a5d	0.05762707
8	0xbc480736	-0.0122087505
9	0x3c694233	0.0142369745
10	0x3dca0fbb	0.098662816
11	0xbde81c5a	-0.11333533
12	0x3f1b8b5e	0.6075953
13	0xbc91b805	-0.017787943
14	0xbd2b30c7	-0.041794565
15	0xbbf95ea6	-0.00761016
16	0xbafa765b	-0.0019108759
17	0x3b5ae99c	0.0033403402
18	0x3cec8da1	0.028876128
19	0xbcbf6d96	-0.023367684
20	0xbdf12eb7	-0.11776488
21	0x3d7cbd92	0.061704226
22	0xbf0e8ee8	-0.5568681
23	0xbccc4125	-0.024933407
24	0xbc0bc219	-0.008530163
25	0xbce0ec21	-0.027456345
26	0x3c179166	0.009250974
27	0x3c6d4be3	0.014483425
28	0x3b768b90	0.0037619807
29	0xbce725c4	-0.02821625
30	0xbf0ab0b6	-0.5417589
31	0x3e91917c	0.28431308
32	0xbeede06e	-0.4646029
33	0x3d1ba8fe	0.03800296
34	0x3d34f0b3	0.04417486
35	0x3b11f9a7	0.0022274049
36	0xbd230ee5	-0.039809126
37	0x3cc21a6d	0.023694241
38	0x3d04d469	0.032429133
39	0xbaeb1903	-0.0017936531
40	0x3bff41a3	0.007789807
41	0xbd939698	-0.07206458
42	0x3f11d47b	0.56964844
43	0x3c7c28d2	0.015390592
44	0xbc412b01	-0.011790038
45	0xbd11288e	-0.035439067
46	0x3cd57f00	0.026061535
47	0x3b6de94a	0.0036302381
48	0xbc20c96c	-0.009813648
49	0x3b84de3a	0.004054812
50	0x3d87c00d	0.06628428
51	0x3c294688	0.010331757
52	0xbebf20c6	-0.37329692
53	0x3cbb93bd	0.022897596
54	0x3d802867	0.06257706
55	0xbc593258	-0.013256632
56	0xbc13ff1e	-0.009032993
57	0x3b856526	0.0040708957
58	0x3d4746ea	0.048651613
59	0x3ce15110	0.027504474
60	0x3b7a9aaf	0.0038239171
61	0x3d5cd412	0.053913184
62	0xbf07c10e	-0.53028953
63	0xbcf24190	-0.029572278
64	0xbda0e113	-0.078554295
65	0x3ab833da	0.0014053539
66	0x3d6e6ac4	0.05820729
67	0xbced37c5	-0.028957257
68	0xbc070383	-0.008240583
69	0xbc373f4b	-0.011184524
70	0xbed5974f	-0.41717002
71	0x3e864244	0.26222432
72	0xbeb84d0a	-0.35996276
73	0xbd0c974f	-0.034323987
74	0xbd98de83	-0.07464316
75	0xbc34ee85	-0.011043196
76	0x3bd8e983	0.0066196336
77	0x3cb0337e	0.021508928
78	0xbc9ad9de	-0.018902715
79	0xbbe3f1a1	-0.0069562946
80	0x3cc514f0	0.024057835
81	0xbddd3043	-0.10800221
82	0x3f7c74d1	0.9861575
83	0xbf133532	-0.57503045
84	0x3d752aec	0.059855387
85	0xbdc3c074	-0.09558192
86	0x3bbfd399	0.005854082
87	0xbd259e3a	-0.0404341
88	0x3c092954	0.00837167
89	0xba6a9c46	-0.0008949678
90	0x3e1332a8	0.14374793
91	0xbdae4157	-0.08508556
92	0x3f0f871f	0.56065553
93	0xbca188c7	-0.01971854
94	0x3c7b0676	0.015321365
95	0xbd034723	-0.032050263
96	0x3aeca0de	0.0018053313
97	0xbc29016a	-0.010315279
98	0x3cb5f09b	0.022209456
99	0xbc980a12	-0.01855949
100	0xbec6f327	-0.38857386
101	0x3e5dc5b2	0.21657446
102	0xbede0256	-0.43361157
103	0xbd24139e	-0.04005777
104	0xbd81a8bf	-0.06331014
105	0xbc9c683a	-0.019092668
106	0x3ca6374d	0.020290041
107	0x3ca051af	0.0195702
108	0x3cd0de02	0.025496487
109	0xbc87c3df	-0.01657289
110	0x3cec7316	0.028863471
111	0xbd9b5baa	-0.07585843
112	0x3f188322	0.5957509
113	0x3c5ee71d	0.013604906
114	0xbc12e744	-0.008966271
115	0xbd3b9d81	-0.045804504
116	0x3c5ca9f7	0.013468257
117	0xb989aba0	-0.00026258547
118	0x3b249d63	0.0025118224
119	0x3b8d89c8	0.0043194033
120	0xbec13087	-0.37732336
121	0x3e2bfad5	0.16794904
122	0xbf6b3c77	-0.9188914
123	0x3dfd076f	0.123549335
124	0xbd0b5405	-0.034015674
125	0xbed7aaeb	-0.42122588
126	0x3d56815a	0.052369453
127	0xbc11cc3b	-0.00889879
128	0x3cc9d87c	0.02463936
129	0xbc162aa8	-0.0091654435
130	0xbddf3655	-0.10899035
131	0xbc8439e8	-0.016140893
132	0xbf597ec6	-0.84959066
133	0x3e0074b0	0.12544513
134	0xbd0b6220	-0.034029126
135	0xbe99c3d4	-0.30032218
136	0x3d414dd5	0.047193367
137	0xbcc8a00e	-0.024490383
138	0xbc262bf2	-0.010142313
139	0x3c336875	0.0109501975
140	0x3dc2e60f	0.095165364
141	0xbe09d216	-0.13459048
142	0xbf34d72b	-0.7064082
143	0x3d22dc94	0.03976114
144	0xbd901694	-0.070355564
145	0xbe0688bb	-0.13138096
146	0x3cd11687	0.025523437
147	0xbd9790f0	-0.074006915
148	0x3d1b217c	0.03787373
149	0xbcd6903a	-0.02619182
150	0x3e958143	0.2920018
151	0xbe73953b	-0.23787396
152	0x3edc27d6	0.42999142
153	0x3bb48857	0.005509417
154	0xbe13bd9b	-0.14427797
155	0xbd488069	-0.048950586
156	0xbd9a7115	-0.075411
157	0x3d5505a0	0.052007318
158	0x3ca3fdb9	0.020018445
159	0x3bf49fcd	0.007465339
160	0x3eea55a2	0.45768458
161	0xbeaedb5e	-0.3415174
162	0x3ec6831e	0.3877191
163	0xbc98ef82	-0.018668894
164	0xbd59412d	-0.053040672
165	0xbb3018a6	-0.002687016
166	0x3aba4321	0.001421068
167	0x3c10373f	0.008802234
168	0x3cb1771f	0.021663247
169	0xbbdd8f65	-0.0067614787
170	0xbecdab72	-0.40169865
171	0x3e8f51c3	0.27992067
172	0xbec2abf1	-0.38021806
173	0xbc9396f3	-0.018016314
174	0xbda79eb9	-0.08184571
175	0x3d2525c9	0.040319238
176	0x3d1d2c94	0.03837259
177	0x3bca0b47	0.006165895
178	0xbb93e9a0	-0.0045139343
179	0xbd619a4d	-0.055078793
180	0xbe8298fc	-0.25507343
181	0x3e3d568d	0.18490048
182	0xbe35c5a0	-0.17751169
183	0x3d90494c	0.0704523
184	0x3b9d4fa1	0.0048007523
185	0x3c2cadc4	0.010539476
186	0x3d0b7ef3	0.034056615
187	0xbc6c9e7c	-0.0144420825
188	0xbd152449	-0.036411557
189	0xbd580bbd	-0.05274557
190	0x3e8f84cc	0.28031003
191	0xbde2c6ec	-0.110730976
192	0x3f5bb2fe	0.85819995
193	0x3d296b69	0.0413622
194	0xbca9b8b3	-0.020717954
195	0xbed84a8f	-0.42244384
196	0xbc94b2de	-0.018151697
197	0x3d9307f8	0.07179254
198	0x3ba9ae9d	0.005178286
199	0xbd202836	-0.03910085
200	0x3ecadc18	0.39621043
201	0xbe89c64d	-0.26909104
202	0x3edf0e03	0.43565378
203	0xbace488a	-0.0015738171
204	0xbd16775f	-0.036734935
205	0x3b6b08e3	0.0035863451
206	0x3b27e58a	0.0025618994
207	0xbc84d5dd	-0.01621526
208	0x3d1a2edd	0.03764235
209	0xbc97fa89	-0.018552082
210	0xbec1c4c9	-0.37845448
211	0x3df824ad	0.1211637
212	0xbf2f2b57	-0.68425506
213	0x3d746a77	0.059671845
214	0x3d24e70a	0.0402594
215	0x3d02ab3c	0.031901583
216	0xbd4b5cce	-0.049649052
217	0x3cbec856	0.023288887
218	0x3c9d31e8	0.019188836
219	0xbba56585	-0.0050475025
220	0xbca80e28	-0.020514563
221	0x3cadc0ad	0.021210039
222	0x3ea32e13	0.3187109
223	0x3b9f743f	0.0048661525
224	0x3d86fd1d	0.06591246
225	0xbc2ee2c7	-0.010674185
226	0xbcb3407f	-0.02188134
227	0x3c3c8b6b	0.011507849
228	0x3d578ee0	0.05262649
229	0xbc66e448	-0.014092512
230	0xbf05f401	-0.52325445
231	0x3e48ff10	0.19628549
232	0xbe980e7e	-0.29698557
233	0x3d38318c	0.044969127
234	0xbc00a095	-0.007850786
235	0xbe3cc71f	-0.18435334
236	0x3d447c60	0.047970176
237	0xbcabf5dc	-0.020991258
238	0x3d3f2469	0.046665583
239	0xbd21f294	-0.03953798
240	0x3e455786	0.19271669
241	0xbe3d663a	-0.18496028
242	0x3f0cbb77	0.5497355
243	0xbcbf51a1	-0.023354353
244	0xbd86caad	-0.06581626
245	0xbcd8c3cf	-0.026460556
246	0xbc6c719d	-0.014431384
247	0xbc963192	-0.018334184
248	0x3c8ca021	0.0171662
249	0xb93ade22	-0.00017821093
250	0xbe89b0d2	-0.26892716
251	0x3e22e8b0	0.15909076
252	0xbed15a88	-0.40889382
253	0xbcc65724	-0.024211474
254	0xbcd6c250	-0.026215702
255	0xbcbbbbe9	-0.022916751

feature_extractor.0.bias f4 [32]
0	0xbf308452	-0.68951905
1	0x3f8e5c4c	1.1121917
2	0x3f90ccbb	1.1312479
3	0x3f571d5c	0.84029174
4	0x3f897e42	1.0741656
5	0xbf7d9934	-0.99061894
6	0x3f7b677b	0.98204774
7	0x3f93308e	1.1499193
8	0xbe9f9e65	-0.31175533
9	0x3f799cb4	0.97504735
10	0x3f9df2a4	1.2339673
11	0x3f85bd23	1.0448345
12	0xbf25350f	-0.64534086
13	0xbf3d19af	-0.73867315
14	0xbf6035f6	-0.8758234
15	0xbf55ee8d	-0.83567125
16	0x3f923be4	1.1424527
17	0x3f8d42db	1.1036028
18	0xbf86e8a9	-1.0539752
19	0xbf05472c	-0.52061725
20	0x3f879786	1.0593116
21	0x3f4ac22a	0.7920252
22	0xbf89e4d2	-1.0772955
23	0xbf6085d9	-0.87704235
24	0x3f95df99	1.1708862
25	0x3f81e2e0	1.0147362
26	0x3f8e01d0	1.1094303
27	0xbf50d57b	-0.81575745
28	0x3f96dd84	1.1786351
29	0x3e845340	0.25844765
30	0x3e7ac96f	0.24490903
31	0x3f534f5c	0.8254297

feature_extractor.2.weight f4 [32]
0	0x3f1b6d1b	0.60713357
1	0x3f098e24	0.53732514
2	0x3ecb2453	0.3967615
3	0x3ed8b133	0.42322692
4	0x3f05cea5	0.5226844
5	0x3f7219ed	0.9457081
6	0x3eefef45	0.46862236
7	0x3ee63e8e	0.449696
8	0x3ef634ea	0.48087245
9	0x3eecf718	0.46282268
10	0x3ed49011	0.41516164
11	0x3efc44b2	0.4927116
12	0x3f013deb	0.50485104
13	0x3f019c34	0.5062897
14	0x3f104454	0.5635426
15	0x3f4090ae	0.75220764
16	0x3f023d56	0.5087484
17	0x3eef726e	0.4676699
18	0x3f76dbf2	0.9642936
19	0x3f1b8c52	0.60760987
20	0x3f05969b	0.5218293
21	0x3e9e190f	0.30878493
22	0x3f7f836a	0.99809897
23	0x3f0bc98b	0.54604405
24	0x3ef91da2	0.4865542
25	0x3ee785c2	0.45219237
26	0x3ee3e5ab	0.4451116
27	0x3f36976f	0.7132482
28	0x3ed4ffe5	0.41601482
29	0x3ed7468b	0.42046008
30	0x3f19ea0a	0.6012274
31	0x3ef42c77	0.47690174

feature_extractor.2.bias f4 [32]
0	0x3e1e9148	0.15485108
1	0x3ebe2f99	0.3714569
2	0x3e53c127	0.2067915
3	0x3e17ff0d	0.14843388
4	0x3eb398b7	0.3507745
5	0x3c9b2f16	0.01894335
6	0x3eba41c8	0.36378312
7	0x3eba4873	0.363834
8	0x3e353608	0.17696393
9	0x3e987a37	0.29780743
10	0x3e9bd2bd	0.30434218
11	0x3e9edfbe	0.31030077
12	0x3e2b3d69	0.16722645
13	0x3e2472f7	0.1605948
14	0x3ddbdc97	0.107354335
15	0x3df25213	0.11832061
16	0x3eca7a3a	0.39546376
17	0x3eb81f8b	0.35961565
18	0x3bad7251	0.0052931686
19	0x3e68673d	0.22695632
20	0x3eb69c5f	0.35666177
21	0x3e0228c6	0.12710866
22	0x3cc696fd	0.024241919
23	0x3dc585ca	0.09644659
24	0x3ec2155a	0.37906915
25	0x3e96b791	0.29436925
26	0x3ea84134	0.32862246
27	0x3e14f6e9	0.14547314
28	0x3e8329f8	0.25617957
29	0x3e3c1916	0.18368945
30	0x3e9b1a68	0.30293584
31	0x3e555c9c	0.20836109

feature_extractor.2.running_mean f4 [32]
0	0x3dc052cb	0.093907915
1	0x3f900de6	1.1254241
2	0x3f917b14	1.1365685
3	0x3f61bcba	0.881786
4	0x3f8ae179	1.0850059
5	0x3a2a8ebc	0.00065062544
6	0x3f7bd060	0.9836483
7	0x3f93495b	1.1506761
8	0x3e84258e	0.25809902
9	0x3f7f0a34	0.99624944
10	0x3f9e89e0	1.2385826
11	0x3f87728d	1.0581833
12	0x3e3bcf95	0.18340905
13	0x3dc996e7	0.098432355
14	0x3cc9dc0b	0.024641057
15	0x3c87afa5	0.016563246
16	0x3f93b920	1.1540871
17	0x3f8d48db	1.1037859
18	0x398a719a	0.0002640605
19	0x3e3d240f	0.18470787
20	0x3f89d80a	1.0769055
21	0x3f5ee8ea	0.8707415
22	0x39da9658	0.00041692215
23	0x3cb5d828	0.022197798
24	0x3f9768f2	1.1828902
25	0x3f8256f4	1.0182786
26	0x3f8e53fa	1.1119378
27	0x3ccd4a49	0.025059836
28	0x3f97b95a	1.185344
29	0x3f3df236	0.7419771
30	0x3f1bd6cf	0.60874647
31	0x3f6669b2	0.9000503

feature_extractor.2.running_var f4 [32]
0	0x3dc23b65	0.09483985
1	0x3e95fc8f	0.2929425
2	0x3e920df4	0.2852627
3	0x3ed204ff	0.41019437
4	0x3e6d18ad	0.23153944
5	0x399842fa	0.000290416
6	0x3e35becd	0.17748566
7	0x3e8913c3	0.2677289
8	0x3e7f0d80	0.24907494
9	0x3e94c389	0.2905543
10	0x3ea42cd8	0.32065463
11	0x3e844357	0.25832626
12	0x3e3dcd7d	0.18535419
13	0x3da8f836	0.082504675
14	0x3c894276	0.016755324
15	0x3c2ee83a	0.010675484
16	0x3e9236f1	0.28557542
17	0x3e840f00	0.25792694
18	0x38be0b11	9.061967e-05
19	0x3e4ad901	0.19809343
20	0x3e9b7bf6	0.30368012
21	0x3f0b932f	0.5452146
22	0x391e2d96	0.00015085036
23	0x3c6260cc	0.0138170235
24	0x3e973947	0.29535887
25	0x3e6caa0b	0.23111741
26	0x3e7e4368	0.24830401
27	0x3c8c8e8b	0.017157814
28	0x3ea58a1b	0.3233193
29	0x3f8e4b10	1.1116657
30	0x3f32eb5b	0.69890374
31	0x3f009d25	0.50239784

feature_extractor.4.weight f4 [16, 32]
0	0xbd7a0a29	-0.061044846
1	0xbc61da91	-0.01378502
2	0xbe9e33bc	-0.30898845
3	0xbf064ab4	-0.5245774
4	0xbd4aa55d	-0.04947411
5	0xbe5c945f	-0.21540974
6	0xbe1ab6bf	-0.15108775
7	0xbe4468d5	-0.19180615
8	0xbd99c43a	-0.0750813
9	0xbce915c1	-0.028452756
10	0xbe83379e	-0.2562837
11	0xbc8aef08	-0.016959682
12	0xbf38e84e	-0.7222947
13	0xbf4927d9	-0.7857643
14	0xbe64ff9d	-0.22363134
15	0xbdb6d97f	-0.08928203
16	0xbd420279	-0.04736564
17	0xbe39ebe8	-0.18156397
18	0xbd88a8ee	-0.06672846
19	0xbc6f5324	-0.014607225
20	0xbcb824d8	-0.022478506
21	0xbf2b7eed	-0.6699055
22	0xbd8d8705	-0.069105186
23	0xbe0b1325	-0.13581522
24	0xbd72e992	-0.05930478
25	0xbe8b4863	-0.27203664
26	0xbe54fe5f	-0.2080016
27	0xbd9d1c8e	-0.07671462
28	0xbe9ca0ca	-0.30591422
29	0xbf703f40	-0.9384651
30	0xbb966d09	-0.0045906347
31	0x3d3dc09f	0.046326276
32	0xbca97144	-0.020683892
33	0xbd789dc4	-0.060697332
34	0x3e0a32e4	0.13495976
35	0x3d5b6847	0.053566243
36	0xbde46219	-0.11151523
37	0xbe5157f7	-0.20443712
38	0x3d3d3e15	0.046201784
39	0x3d43bc47	0.047786977
40	0xbe40cd0f	-0.18828224
41	0xbd8a24ba	-0.06745286
42	0x3db4b529	0.08823616
43	0xbe033842	-0.1281443
44	0x3d32a5ed	0.04361527
45	0x3a7f2674	0.0009733208
46	0x3d801378	0.06253713
47	0xbe09443c	-0.13404936
48	0xbd5eabbe	-0.054363005
49	0x3d217316	0.039416395
50	0xbedfa4a3	-0.43680295
51	0xbcfa7563	-0.030573552
52	0xbda9cf5d	-0.082915045
53	0x3db07d69	0.0861767
54	0xbd9ee1e1	-0.07757927
55	0x3d0b19e0	0.033960223
56	0xbdb174cf	-0.086648576
57	0x3da5a0ff	0.08087348
58	0x3d7f5cb6	0.062344275
59	0xbe50ffb0	-0.20410037
60	0x3e057b60	0.13035345
61	0x3da56f6b	0.08077892
62	0xbde5e883	-0.11225989
63	0xbe16ee41	-0.14739324
64	0xbd2148d2	-0.039376087
65	0x3cbd4ab3	0.023106908
66	0xbe90e13e	-0.28296846
67	0xbf023d4a	-0.5087477
68	0xbd0e70f0	-0.034775674
69	0xbe424bf1	-0.18974282
70	0xbe170c10	-0.14750695
71	0xbe2bcbc6	-0.16776952
72	0xbcf1978b	-0.029491207
73	0x3b8986e4	0.0041969884
74	0xbe7e4e81	-0.24834634
75	0xbcf133f9	-0.029443728
76	0xbf51bdfd	-0.81930524
77	0xbf2ad7ce	-0.6673554
78	0xbe453a02	-0.1926041
79	0xbddb5087	-0.10708719
80	0xbd66002a	-0.0561525
81	0xbe40499d	-0.18778081
82	0xbd9d7005	-0.07687382
83	0xbd09b992	-0.03362424
84	0xbd14fd98	-0.03637466
85	0xbf218c97	-0.6310515
86	0xbd79c9cf	-0.060983475
87	0xbdf45a5d	-0.11931298
88	0xbcab03eb	-0.020875892
89	0xbe76b64e	-0.24092981
90	0xbe3cf3e2	-0.18452409
91	0xbd6866f3	-0.056738805
92	0xbea6abb8	-0.32552886
93	0xbf502592	-0.8130733
94	0xbd1c94cb	-0.038227838
95	0x3d8a5f86	0.06756501
96	0x3c7c246c	0.015389543
97	0x3d1dccdc	0.038525447
98	0xbe3239f3	-0.17404918
99	0xbe90303f	-0.2816181
100	0x3c804320	0.015657008
101	0xbea6be38	-0.32567
102	0xbdf6c2cb	-0.120488726
103	0xbdc59ea1	-0.09649397
104	0xbd002317	-0.031283464
105	0x3ce46fc1	0.02788532
106	0xbe42d088	-0.19024861
107	0x3d44132d	0.04786985
108	0xbec2f0e3	-0.38074407
109	0xbf210120	-0.6289234
110	0xbf3523c5	-0.70757705
111	0xbda4900a	-0.08035286
112	0x3d46f778	0.04857585
113	0xbdeff980	-0.1171751
114	0xbe60f425	-0.21968134
115	0x3b974b9c	0.0046171676
116	0x3cd82126	0.026382994
117	0xbe975463	-0.2955657
118	0xbe992b63	-0.29915914
119	0xbf170e9a	-0.59006655
120	0x3cbf2af7	0.023335917
121	0xbddc96c6	-0.10770945
122	0xbdf3b6ba	-0.11900087
123	0xbd0088f7	-0.03138062
124	0xbe3cadfd	-0.18425746
125	0xbeab9683	-0.3351327
126	0x3ba76590	0.0051085427
127	0x3d0d5184	0.034501567
128	0xbe4f21fd	-0.20227809
129	0xbd53419e	-0.05157625
130	0x3d747019	0.059677217
131	0x3d871dab	0.065974556
132	0xbda7ae7f	-0.08187579
133	0xbd91be99	-0.07116432
134	0x3d3bceba	0.045851447
135	0x3d802918	0.06257838
136	0xbd266d30	-0.040631473
137	0xbdc52ba2	-0.09627463
138	0x3dc19cb1	0.09453715
139	0xbdf1855e	-0.11793016
140	0x3dbfa005	0.09356693
141	0x3ded0e3d	0.11574981
142	0x3e0bfd16	0.13670763
143	0xbeab5716	-0.3346488
144	0xbd881fa0	-0.06646657
145	0x3c2d6ff5	0.010585775
146	0xbdb423af	-0.087958686
147	0xbe0992ac	-0.13434857
148	0xbdb6c26e	-0.08923803
149	0xbc0e6a58	-0.0086923465
150	0xbddbc388	-0.10730654
151	0x3e06c21a	0.13159981
152	0xbdb8522d	-0.09000049
153	0x3d783ff8	0.06060788
154	0x3d54d153	0.05195744
155	0xbe8ef160	-0.2791853
156	0x3d5aff4e	0.053466134
157	0x3d80cac6	0.06288676
158	0xbdb9bebb	-0.09069582
159	0xbd43a5df	-0.04776561
160	0xbcef410a	-0.029205818
161	0xbc5a29b7	-0.01331561
162	0xbeb799ec	-0.3585962
163	0x3cb0ca10	0.021580726
164	0xbc5fa46a	-0.013650039
165	0xbd220dc6	-0.039563917
166	0xbf3ce559	-0.73787457
167	0xbf36452d	-0.71199304
168	0x3e3db936	0.18527684
169	0xbd393a95	-0.045221884
170	0xbf1e3c5d	-0.6181086
171	0xbc0513ec	-0.0081224255
172	0x3c563719	0.01307466
173	0xbde7f137	-0.11325305
174	0xbe64677c	-0.22305101
175	0x3e093087	0.13397418
176	0xbc7ebdae	-0.015548153
177	0xbf69e7ce	-0.9136933
178	0xbe39c24e	-0.18140528
179	0xbcb1c68b	-0.021701118
180	0x3cad9d4d	0.02119317
181	0x3ba86e74	0.00514012
182	0xbfadcd7d	-1.3578335
183	0xbda5b2b8	-0.080907285
184	0x3d3ec5cd	0.046575356
185	0xbf06d676	-0.5267099
186	0xbf131bf0	-0.57464504
187	0x3d8f3801	0.06993104
188	0xbeab9fde	-0.33520406
189	0x3d604b80	0.054759502
190	0x3b3b00e9	0.0028534478
191	0x3cd497f6	0.025951367
192	0xbe310d1b	-0.17290156
193	0xbdb665f3	-0.08906164
194	0x3ddb712f	0.107149474
195	0x3df5026f	0.11963355
196	0xbdce4b5f	-0.1007297
197	0xbee02380	-0.43777084
198	0x3d00c19f	0.03143465
199	0x3db73369	0.089453526
200	0xbd0e345e	-0.03471791
201	0xbdaea699	-0.0852787
202	0x3d818dad	0.06325851
203	0xbdb10fbb	-0.086455785
204	0x3da00c3c	0.078148335
205	0x3d3e3890	0.04644066
206	0x3db8889d	0.09010432
207	0xbecdeb84	-0.40218747
208	0xbdc93aea	-0.0982569
209	0x3cce5a7c	0.02518963
210	0xbed5b0f5	-0.4173657
211	0xbddd11f6	-0.107944414
212	0xbdc0f43c	-0.09421584
213	0x3cfbd755	0.030742327
214	0xbdb2b667	-0.08726197
215	0x3d5a49c4	0.053293005
216	0xbd9f61cf	-0.077823274
217	0x3e0fa55e	0.14027926
218	0x3d433096	0.047653757
219	0xbebab8fd	-0.3646926
220	0x3dfb6c64	0.12276533
221	0xbb9a0102	-0.004699827
222	0xbe04bb40	-0.12962055
223	0xbdb5dd19	-0.08880062
224	0x3d894625	0.06702832
225	0xbf34a312	-0.70561326
226	0x3dc798fd	0.09745977
227	0x3dd33b15	0.103140034
228	0xbf319f5b	-0.6938378
229	0x3d8efbd3	0.069816254
230	0x3d7c4744	0.0615914
231	0x3dd0047b	0.101571046
232	0xbe471376	-0.19441018
233	0xbede178f	-0.4337735
234	0x3d87d1d9	0.06631822
235	0xbf0cfa2f	-0.5506925
236	0xbce75415	-0.028238336
237	0x3c1be115	0.009514113
238	0x3eb4151e	0.3517236
239	0xbea2a99f	-0.31770036
240	0xbf4e7c5d	-0.80658513
241	0x3cb7f91e	0.022457656
242	0xbd7fdbc3	-0.06246544
243	0x3e2b9492	0.16755894
244	0xbf2a60d1	-0.6655398
245	0x3e36a0ec	0.17834824
246	0xbbd69559	-0.0065485653
247	0x3e4104bb	0.18849461
248	0xbf5c578a	-0.86071074
249	0x3ddb3f3b	0.1070542
250	0x3d69bac8	0.057062894
251	0xbd0931d2	-0.033494778
252	0x3d84364f	0.06455671
253	0x3dd08363	0.1018131
254	0x3eae2176	0.34009904
255	0x3e8b8f75	0.27257887

feature_extractor.4.bias f4 [16]
0	0x3fddb59e	1.732105
1	0x400d2263	2.2052238
2	0x3fdfa893	1.747332
3	0x40012b87	2.0182817
4	0x4025899c	2.586524
5	0x3eb24cd6	0.34824246
6	0x40024548	2.0354786
7	0x3ca79eb8	0.020461425
8	0x3f9ab8b8	1.2087622
9	0x3fc107c4	1.5080495
10	0x400bc692	2.1839948
11	0x3fc0dbbc	1.5067058
12	0x3ff121a9	1.8838397
13	0x3fd107c0	1.633049
14	0x3f5267d2	0.8218967
15	0x40020ee9	2.03216

feature_extractor.6.weight f4 [16]
0	0x3edb5acc	0.4284271
1	0x3ecd0282	0.40040976
2	0x3ed636b2	0.41838604
3	0x3ed24386	0.4106714
4	0x3ed68fc4	0.4190656
5	0x3eeb0b68	0.4590714
6	0x3eccf49b	0.4003037
7	0x3ee94ad8	0.45564914
8	0x3eddaaa2	0.43294245
9	0x3edacd58	0.4273479
10	0x3ef0eb9f	0.47054765
11	0x3eca4e2d	0.39512768
12	0x3ed8eb48	0.42367005
13	0x3ed735a8	0.42033124
14	0x3ed99409	0.42495754
15	0x3eed298a	0.46320754

feature_extractor.6.bias f4 [16]
0	0xbbab7762	-0.0052327374
1	0x3be4d198	0.0069829933
2	0xbb82b693	-0.0039890497
3	0xbb068a0f	-0.0020529067
4	0x3c89a481	0.016802074
5	0xbc03ded9	-0.0080487365
6	0xba601e8a	-0.00085494725
7	0x3b7a4f91	0.0038194398
8	0xbc2cfbc4	-0.0105580725
9	0xbc54f9b7	-0.01299899
10	0xbb03574d	-0.002004105
11	0x3c045339	0.008076482
12	0xbba8a72e	-0.0051468825
13	0xbb29e2ad	-0.0025922463
14	0xbb18b235	-0.002329958
15	0x3b2e4732	0.0026592729

feature_extractor.6.running_mean f4 [16]
0	0x3f8c0659	1.0939437
1	0x40074fe6	2.1142516
2	0x3f92ba11	1.1463033
3	0x3fd159c4	1.6355519
4	0x401ec3a9	2.4806921
5	0x3ed5525c	0.41664398
6	0x3ff9a14c	1.9502349
7	0x3f035b50	0.51311207
8	0x3f467765	0.7752593
9	0x3f6bacaa	0.9206034
10	0x4004de1b	2.0760562
11	0x3f78adef	0.971404
12	0x3fc45060	1.5337029
13	0x3f8ca35e	1.0987356
14	0x3f0306fd	0.5118254
15	0x4000ca48	2.0123463

feature_extractor.6.running_var f4 [16]
0	0x3f697353	0.91191596
1	0x3f51f5f3	0.82015914
2	0x3f6e4025	0.93066627
3	0x3f617e49	0.8808332
4	0x3f5fe2fa	0.87455714
5	0x3f81a0b5	1.0127169
6	0x3f59bfae	0.85058105
7	0x3fcbc65a	1.5919907
8	0x3fc3ee2a	1.5307057
9	0x3f8cb6d5	1.0993296
10	0x3ef1988b	0.47186694
11	0x3f62b377	0.8855509
12	0x3f74103b	0.95337266
13	0x3f51bac8	0.8192563
14	0x3f842982	1.0325167
15	0x3ef06433	0.46951446

asset_selection_head.weight f4 [1, 16]
0	0xbc2b429c	-0.010452893
1	0xbc9c34db	-0.019068172
2	0xbc28fa75	-0.01031362
3	0xbd3648d0	-0.044503033
4	0xbb5ffbef	-0.0034177264
5	0x3e0ce417	0.13758884
6	0xbc1d7d75	-0.009612431
7	0x3e263153	0.16229753
8	0x3e0a0f23	0.13482337
9	0x3d98379f	0.07432484
10	0xbd1f24c6	-0.03885343
11	0x3caeff69	0.021362023
12	0xbb82c14e	-0.003990329
13	0xbb870b77	-0.0041212398
14	0x3dfcbb68	0.123404324
15	0x3b1badd3	0.002375473

allocation_head.weight f4 [1, 16]
0	0x3e1af49b	0.15132372
1	0xbe23f062	-0.16009668
2	0x3e258597	0.16164242
3	0x3e1fe7cc	0.15615767
4	0xbe06d7ad	-0.13168211
5	0x3e123f38	0.14281929
6	0xbe190b97	-0.14945827
7	0xbe088fa2	-0.13336042
8	0xbe361efa	-0.17785254
9	0xbe2b6c3e	-0.1674051
10	0x3d759278	0.059954137
11	0xbe0b5969	-0.13608326
12	0xbe282637	-0.16420828
13	0xbe2074e4	-0.1566959
14	0x3e402757	0.18765007
15	0x3cda398d	0.02663877

timing_head.weight f4 [1, 16]
0	0xbdd95909	-0.10612685
1	0xbc8ac193	-0.016938007
2	0xbdbff011	-0.09371961
3	0xbd2690ac	-0.040665314
4	0xbdc6a83d	-0.09700058
5	0x3db90dbb	0.09035822
6	0xbcdfcc2d	-0.027319038
7	0xbddf5581	-0.109049805
8	0x3c8d270f	0.017230539
9	0x3d900c2e	0.07033573
10	0x3e2c90b0	0.16852069
11	0x3dc23ba5	0.094840325
12	0x3d3dec81	0.046368126
13	0x3e1689b3	0.14700966
14	0x3d283b1e	0.041072004
15	0xbe58cd09	-0.21171965

currency_head.weight f4 [1, 16]
0	0x3e2ef62a	0.17086092
1	0xbe20b4aa	-0.15693918
2	0x3e345137	0.17609106
3	0x3e35a52a	0.17738786
4	0xbe32c2fa	-0.1745719
5	0x3d9bebfa	0.07613368
6	0xbe2f4f63	-0.17120127
7	0xbd8e2906	-0.06941418
8	0xbdd7eb89	-0.10542972
9	0xbe0bbc56	-0.13646063
10	0x3e5de968	0.21671069
11	0xbe0e5724	-0.13900429
12	0xbe2994dd	-0.16560693
13	0xbe20539e	-0.15656897
14	0x3daffec8	0.085935175
15	0xbe26286c	-0.16226357

interaction_head.weight f4 [1, 16]
0	0x3e1cd8ba	0.1531705
1	0xbe3bcdab	-0.18340175
2	0x3e1ac4db	0.15114157
3	0x3e24d5e2	0.16097215
4	0xbe23538e	-0.15949842
5	0x3e057906	0.13034448
6	0xbe4b5478	-0.19856441
7	0xbdd4115a	-0.10354872
8	0xbe0e2911	-0.13882853
9	0xbe2423ab	-0.16029231
10	0x3df79acf	0.12090074
11	0xbe15f39c	-0.14643711
12	0xbe2b9ff0	-0.1676023
13	0xbe1a83c6	-0.1508933
14	0x3e1b72b1	0.1518047
15	0xbd2b5d42	-0.041836984
